model.onnx (onnx, 183415 bytes, 8 tensors)

_conv1_layer.0.weight f4 [15, 1, 5, 5]
00000000: 6742 97bd 5693 fd3d dbbd 513d 6213 8abe
00000010: 882c 19bf 5eab f3bb 4a5b cfbc 4b6d 9d3d
00000020: 847a 993e d682 b23e 3bc0 a2be 7b5c 77be
00000030: cd16 dfbc bedf 8bbe 29dd 37be c4c7 543d
00000040: 4271 2abe 5d20 223d dd56 90bd cdc9 423c
00000050: 6c8c 71bd 0c0d 323e 92dd 9fbe aec2 b7bd
00000060: 732a bdbe b855 14b9 1670 7e3e fded a5bd
00000070: bdb1 47be 64d2 1abf 8ac8 103e 6e6e 073e
00000080: b5eb 053e 31b3 d3bd 1163 8ebe 9ec4 b53e
00000090: 3f88 9b3d 04ab e3bc d36b f6be 467b 9b3d
000000a0: dff7 193e fc0d 50bd 83d3 eabe e924 cfbe
000000b0: 2c5c ea3d af72 71bd 655e 4dbe 3198 c0be
000000c0: cfbd a3bd 3e24 0fbe 8721 28be 73a0 763d
000000d0: 3ccb 453d 4889 203d 1fde 623e 0c7f 2ebf
000000e0: 8fad 82be 1e56 653e dd9f 183e 7270 213e
000000f0: 8a22 5cbe 2f51 51bf f1cc 25bf 1016 7abe
00000100: ba23 5abe 51e9 1c3e d5bd 4cbe 13a0 b9be
00000110: 5877 00bf 2b86 a7be 1cff 843e 3686 0c3e
00000120: f4b6 963d 0a22 533e 94dd 85bd ef17 623e
00000130: e69b 903c a14c 5d3e b143 aa3e a60c cbbd
00000140: e6a1 4fbe 0939 51bd 6399 36bd 11ab 40bd
00000150: 1023 b4be 0bee 96be 2f52 83bd 7089 75be
00000160: 1b71 d8be 86c1 a4be 3f19 24be fa97 323d
00000170: d40a 99be c296 383e 0cad 313e ad71 6dbe
00000180: d877 4abe 0af9 b9bd e15b bf3d 4517 16be
00000190: c9e9 9abe f62c 10bf a7ab a3be f797 a8be
000001a0: c224 a8bd abd1 333e 89af 833e b1f7 b83e
000001b0: 90ed 18be 0e6e edbd 1ef1 943e 6425 c33e
000001c0: 6ae7 0abd 4479 7ebe ecfb 45bd 95e5 49bf
000001d0: 7458 f0be b04a 29be e8e6 b7bd 36c6 a83d
000001e0: 7cb7 00bf 2bf8 28bd c948 2a3e 0164 223e
000001f0: acd3 f2be be8f e33d be56 1cbe ac89 7b3d
00000200: 2a96 833d 528e 91bf 0223 c6bd d920 22be
00000210: 7e94 ee3d 1152 fd3e 9cdb d8bc 8c15 a53e
00000220: 1883 87be 372f bc3d e15a 6b3e f330 543e
00000230: ded3 ac3c 754f 31bf 3aa8 32be b0a6 b63c
00000240: cb62 7e3e c7b1 843e 2179 103e 1d30 d2bd
00000250: e56c afbd e943 703e 3d7d 85be 368e edbb
00000260: e985 08be 5073 8d3d 4961 28bd 0e05 87be
00000270: f110 23be ef3b 0abe 334a 52be e2b0 35be
00000280: 0583 19bd c6db 7dbc 4b86 a5be b0be 23be
00000290: c7a7 94be fab9 2dbd edc8 6a3e b3ec b33d
000002a0: a360 f2bd aeb7 d3be a9f4 0cbf 9ec2 883d
000002b0: 2aa6 753e bf7e 503e baf2 0ebf da77 1c3e
000002c0: 46e9 363e c5d6 37be d3ec 163e 0487 963e
000002d0: d644 053e 58fc 8e3e f2e7 c13d 07c8 70be
000002e0: 13d3 823e 0824 82be 747a 9cbd a8cf 1d3e
000002f0: d4e7 e7bc b704 20be 2e84 72be dd15 5ebe
00000300: bdf6 53be 9b05 63bd 9a37 97bd dc61 1cbe
00000310: e293 74be 7663 e7be 2c5b 0bbf 7865 afbc
00000320: 8df6 05be 8333 94be 8edb 513e 96ac 713e
00000330: a6ef f03c f09d 533e a880 033f 878b 8d3e
00000340: b595 0fbe aef9 9f3c 7114 423e ca18 583e
00000350: bb95 cbbc 813c 02bf 1251 d1be 238b 96be
00000360: 3675 0ebf 5443 13bf 5a53 bdbe b896 333d
00000370: b4ce d4bc 2bf9 c43d 1142 5e3e 2f56 953d
00000380: 489b 98bd 08c4 1ebe b5f3 71be 97ca d6be
00000390: d258 01be b4dd 2e3e a60a bf3e ad3d 0c3e
000003a0: 4164 21be 02b3 843e 2b79 cabc 519f aabe
000003b0: 8d5b d3be 721a 9b3b 1eac 5e3e 7807 32bf
000003c0: 0f12 61bd b91c b8be 9950 6b3e 259d adbd
000003d0: 65fc bcbe 78ec 1dbd 5228 d4be ae64 433e
000003e0: cb48 6ebe d0fc c43b 81ac 07be ea91 b03d
000003f0: d22e 6a3e c89b 83be befe acbe 3e13 d2bd
-0.07385712 0.12381618 0.05120645 -0.26967913 -0.59833574 -0.0074362 -0.025312085 0.076868616
0.29976285 0.34865445 -0.31787285 -0.24156372 -0.027232552 -0.2731914 -0.1795546 0.051948324
-0.16644767 0.039581645 -0.07047818 0.011888933 -0.058971807 0.1738779 -0.31223732 -0.08972679
-0.3694645 -0.00014146313 0.24847445 -0.08102033 -0.19501396 -0.6047728 0.14139 0.1322572
0.13078196 -0.103369124 -0.27809957 0.3550157 0.07594346 -0.027791508 -0.48129138 0.07591872
0.15035962 -0.050794587 -0.45864496 -0.40457848 0.11443362 -0.05894726 -0.2005554 -0.37616113
-0.079951875 -0.13978669 -0.1641904 0.06021161 0.048289523 0.03919342 0.22155045 -0.6816261
-0.2552304 0.22396132 0.14904733 0.1576555 -0.2149755 -0.817645 -0.6476584 -0.24422479
-0.21302691 0.15323378 -0.1999429 -0.3625494 -0.50182104 -0.3271955 0.25975883 0.13723072
0.07359114 0.20618454 -0.06536403 0.22079442 0.017652463 0.21611263 0.3325477 -0.09914522
-0.20276603 -0.051079784 -0.044579875 -0.04703814 -0.35183 -0.29478487 -0.0641216 -0.2397821
-0.42273793 -0.32178897 -0.16025256 0.043601967 -0.29891074 0.1802626 0.17351168 -0.23187895
-0.1977228 -0.090807036 0.093436964 -0.14657314 -0.3025649 -0.56318605 -0.31966898 -0.3292844
-0.08210136 0.1756045 0.2571986 0.36126474 -0.14934373 -0.11593257 0.29090208 0.38114464
-0.0339121 -0.24850947 -0.048335955 -0.7886594 -0.46942484 -0.16532397 -0.08979589 0.08240931
-0.50279975 -0.041252296 0.16629328 0.15858461 -0.47427118 0.11111401 -0.15267465 0.06141059
0.06425126 -1.1371558 -0.09674646 -0.15832843 0.116494164 0.49476674 -0.026471905 0.32243
-0.26467204 0.09188693 0.22983886 0.20721798 0.02109712 -0.69261867 -0.17446986 0.02229628
0.24842374 0.25916883 0.14108707 -0.10263083 -0.08565692 0.23463406 -0.26072112 -0.007249619
-0.13332333 0.0690676 -0.041108403 -0.26371044 -0.15924431 -0.13499425 -0.20536117 -0.17743257
-0.037478466 -0.015494293 -0.3232902 -0.1599071 -0.29034254 -0.04241369 0.2292821 0.08785381
-0.11834838 -0.41351074 -0.5506082 0.06677745 0.23989168 0.2036085 -0.5583912 0.15280095
0.17862424 -0.17953022 0.14738779 0.29399884 0.1301454 0.27926898 0.09468068 -0.23513804
0.25551662 -0.25418115 -0.076405436 0.15411246 -0.028308786 -0.15626799 -0.23683235 -0.21688028
-0.20699592 -0.055425268 -0.07383652 -0.15271705 -0.23884538 -0.4519307 -0.5443599 -0.021410689
-0.13082333 -0.2894555 0.2049391 0.23600993 0.029411148 0.20665717 0.5136819 0.27645513
-0.14021952 0.019528236 0.1895311 0.21103206 -0.02485167 -0.5087357 -0.40882164 -0.29403028
-0.556476 -0.5752461 -0.36977655 0.04384491 -0.02597747 0.096178375 0.2170489 0.07291829
-0.074514925 -0.15504467 -0.23628123 -0.4195144 -0.12631539 0.1707676 0.37312812 0.13695402
-0.157609 0.25917822 -0.02471598 -0.33324674 -0.41280785 0.004733377 0.21745345 -0.69542646
-0.054948863 -0.35959414 0.22979964 -0.084772386 -0.36911312 -0.038555592 -0.41437012 0.19081375
-0.23269956 0.006011583 -0.13249399 0.08621581 0.22869423 -0.2570479 -0.33788103 -0.102575764

_conv1_layer.0.bias f4 [15]
00000000: 00db 8fbf 8403 9abf 6d2a a2bf 8443 aebf
00000010: 6a2d bfbf f80c c7bf 520b a4bf a7ac 7fbf
00000020: 5bec b1bf 1c58 d4bf df7a a4bf 8881 92bf
00000030: 3b4b c2bf e31a 96bf 73db bbbf
-1.1238708 -1.2032323 -1.2669197 -1.3614354 -1.4935734 -1.5550833 -1.2815955 -0.9987282
-1.3900255 -1.6589389 -1.2849997 -1.144578 -1.5179209 -1.1726955 -1.4676346

_conv2_layer.0.weight f4 [30, 15, 5, 5]
00000000: 0bd8 05be a708 dbbd 021b 8fbd 1f94 10bb
00000010: 6cd6 5f3b 8a66 b0bd 5956 d1bc 0d2f 9e3c
00000020: 1e68 c4bc 6292 183d c3e3 07bd 148d 96bd
00000030: d252 41bd 98f0 55bd 167d b0bd f52e cebd
00000040: b522 b4bd bce4 85bc bede 95bd d423 bdbd
00000050: eaf6 95bd 6185 c4bd 10de dabd df41 a53b
00000060: 83ff 95bc be49 0cbe a8b7 00be 12d1 f6bd
00000070: a4fc c6bc 2dee 943c b3d9 9bbd 92e7 adbd
00000080: 75a4 cd3c 7c64 953c 55aa 9dbc c9aa 4bbd
00000090: 62d2 adbd 3617 f3bd 36e3 f2bc 14f8 21bd
000000a0: 7f65 ffbc 863d 5dbe 36cd f8bd 2826 eabc
000000b0: d7c5 00be 114f d03c 962a a9bd 8023 e7bd
000000c0: 14ea 02be 47c2 6bbd 170a f4bd 1f0e 36be
000000d0: 9095 99bc af5d 82bd 36aa 15bd dff9 bebc
000000e0: 9f3f e2bd 7bfa dcbd 799f 34bd 2fca 84bd
000000f0: 2741 95bd 6ea2 83bd 64c3 9dbd 3691 a0bb
00000100: 1d54 37bd e01d bdbd 9306 1e3d b5a7 073c
00000110: cd43 d1bd 048f 9dbd ad44 dcbd 9268 a9bd
00000120: f7eb d1bd 2970 69bd 9963 85bd ce22 f6bd
00000130: 8f06 b2bd 04e0 e8bd 7369 e4bd 2303 e3bd
00000140: 911d fdbd 7650 17bd b66b 8bbd fa87 e0bc
00000150: 56b0 47bd adef d7bd 539b 82bd dd8c 1dbd
00000160: 94c1 a6bd 1993 f0bc 29f5 5bbd 2019 03be
00000170: 939c 18bd 5558 5bbd acb3 c1bd 8372 68bd
00000180: 4124 1dbd 70a4 fe3b c903 013e 4fa0 30bd
00000190: dbcb b5bd fd75 c03b ac8b 18bb 7f10 b8bc
000001a0: 63ed 75bd 9c54 1dbd bee3 ce3c 4ad4 1e3c
000001b0: 4883 c7bd 3df9 6abd b21b 58bd e29f 8abd
000001c0: d522 45bd 801b f6bd 64aa ccbc fc38 aabd
000001d0: 8811 c4bd 3afd c5bd 446f 14ba 91e3 1fbd
000001e0: eae7 03bd f149 b0bd 95ac 12bd 514f 7cbd
000001f0: 905a 5f3c 4df8 2ebd 9658 cfbc bbd5 57bd
00000200: 8189 4a3b 6435 eabc 8f94 5abd 9b42 62bd
00000210: 70fe 27bd 393a 04bd 0713 15bd f4aa 43bd
00000220: b15e d5bd e584 a4bd 26b3 88bd 1ff1 5d3b
00000230: ca7b 99bd bb02 ecbd 84a1 a6bd b489 cdbd
00000240: d3a7 5dbc f67e ccbc b79f 64bd 6a10 15bc
00000250: 8baa 0abc a398 2dbd aa89 80bd f0ae 9fbd
00000260: 4d63 fcbd 3508 d8bc 8a4e 35bd 1d1e 8fbd
00000270: a1cd a13b 99a3 1cbd 4b97 673c 228e b93c
00000280: e70a f0bc b775 7dbd 4a1a e5bc ce23 febd
00000290: 9782 80bd 2678 36bd f052 c3bd e466 053d
000002a0: a4ab 0b3d f8fb 2dbd 252b a43c e8cd e1bd
000002b0: d3b6 6ebd 5b41 11bc b670 a8bd 7916 d0bd
000002c0: 23bf 5dbd 0037 e0bd 8fc9 2fbd 278b 923d
000002d0: 9b3f 9cbd 91af 9ebd 165b c0bd a2f1 8fbd
000002e0: d200 aa3c b86a b3bd 80c4 9ebc 0e06 03bd
000002f0: a629 9ebd e8bf 22bd 8101 ffbd b6e6 d4bd
00000300: 2d41 403b 3ebc f23d 8896 babc b488 01bc
00000310: d52c 26bd f354 77bd b88d 01be cbdc 71bd
00000320: 7b83 d2bd 9f04 80bd 415d 24bd 3eb4 f13c
00000330: a972 9eb9 317c b6bd 0fef 75bd ae27 5ebd
00000340: abc9 a73c 7478 1f3d b159 5abd 45fe ddbd
00000350: e035 febc 7fe2 4dbd 3f11 93bd e576 15bd
00000360: eae6 33bd b875 34bd 1b93 d4bd 90e3 8bbd
00000370: 78e9 d0bc 5a1e 8ebc 28ce 92bd ce31 3ebd
00000380: 0faa e1bd a3f1 a1bd 7f21 5cbd 289f a4bd
00000390: 5da7 34bc ce91 bdbd 79c4 bdbd a3da 40bc
000003a0: 18f1 04be 923a 8ebd 6671 25bd ada7 9abd
000003b0: 8c70 cabd 2735 62bd 073b c2bd 62fb 8bbd
000003c0: 6aef c8bd d0af d3bd 231c a4bd ff3b b7bd
000003d0: f36c 72bd aea5 9ebd 8944 debd cd15 28bd
000003e0: 9570 b9bc cb7c 153c 3988 c4bd 8b0f 183c
000003f0: 4aa5 abbb e01c 9abd 7669 c2bd b974 21bd
-0.13070695 -0.1069501 -0.06987573 -0.0022060943 0.0034154905 -0.08613308 -0.02555387 0.019309545
-0.023975428 0.037248977 -0.033176195 -0.07351127 -0.047198124 -0.0522314 -0.08617608 -0.1006755
-0.08795682 -0.01634442 -0.07317875 -0.09235349 -0.07322486 -0.095957525 -0.10686886 0.005043253
-0.018310314 -0.13700005 -0.1257006 -0.12051596 -0.02429039 0.018179977 -0.07609882 -0.08491434
0.025102833 0.018236391 -0.01924626 -0.04972342 -0.08487393 -0.118696615 -0.029649358 -0.039543226
-0.031176327 -0.216055 -0.12148516 -0.028582647 -0.1257547 0.025428327 -0.08260076 -0.11286068
-0.12784606 -0.057558324 -0.11915987 -0.17778824 -0.018748075 -0.06365525 -0.03653928 -0.023312507
-0.11047291 -0.10789963 -0.044097397 -0.06483876 -0.072878174 -0.064274654 -0.077032834 -0.004900123
-0.04475795 -0.09234214 0.03858049 0.008279731 -0.1021801 -0.07693294 -0.10755286 -0.08271898
-0.10250085 -0.05699173 -0.06513137 -0.12018357 -0.08692657 -0.113708526 -0.11152925 -0.11084583
-0.12359155 -0.036941968 -0.068076536 -0.027408589 -0.04875215 -0.105437614 -0.06377282 -0.038464416
-0.08142391 -0.029367017 -0.0537006 -0.12802553 -0.037258696 -0.053551037 -0.09458098 -0.056749832
-0.038364653 0.0077710673 0.125991 -0.043121632 -0.08876773 0.0058734403 -0.002327661 -0.022468803
-0.060040843 -0.038410768 0.02525508 0.009694168 -0.09741837 -0.0573666 -0.052760787 -0.067687765
-0.04812892 -0.12016964 -0.024983592 -0.0831165 -0.09573656 -0.0966744 -0.0005662332 -0.039035384
-0.032203592 -0.08607853 -0.03580912 -0.06159908 0.013632432 -0.042717267 -0.025310796 -0.052694064
0.0030904713 -0.028589912 -0.053364333 -0.0552393 -0.041014135 -0.032282088 -0.0363951 -0.047770455
-0.104184516 -0.0803316 -0.06674795 0.0033865643 -0.07494314 -0.11523958 -0.081362754 -0.100360304
-0.013528782 -0.024962883 -0.05581638 -0.009098152 -0.008463512 -0.042381894 -0.06276257 -0.077970386
-0.123236276 -0.0263711 -0.044264354 -0.069881655 0.004937843 -0.038241956 0.014135192 0.022650782
-0.029302074 -0.06187984 -0.027966637 -0.12409173 -0.06274908 -0.044548176 -0.095373034 0.032568827
0.034099236 -0.042476624 0.020040104 -0.110256016 -0.058279824 -0.00886568 -0.08224623 -0.10160536
-0.05413736 -0.109479904 -0.04291683 0.071554475 -0.07629319 -0.077483304 -0.09392373 -0.0702851
0.020752344 -0.08760589 -0.019380808 -0.031988196 -0.077227876 -0.039733797 -0.12451459 -0.10395567
0.0029335723 0.118523106 -0.022776857 -0.007906128 -0.0405701 -0.06038375 -0.12651718 -0.059048455
-0.10278984 -0.062508814 -0.040127996 0.029504891 -0.00030221537 -0.089104064 -0.060042437 -0.05423706
0.020481905 0.038933232 -0.053308193 -0.10839514 -0.031031549 -0.05026483 -0.07181024 -0.03649034
-0.04392139 -0.044057578 -0.10379621 -0.068305135 -0.025501952 -0.017348457 -0.071682274 -0.046434216
-0.11018764 -0.07907417 -0.053742882 -0.08038169 -0.011026231 -0.09256326 -0.0926599 -0.011770877
-0.12982595 -0.06944765 -0.04039135 -0.07551513 -0.09884748 -0.05522647 -0.09483915 -0.06835057
-0.098112896 -0.10336268 -0.08013179 -0.0894699 -0.059185933 -0.07746445 -0.10852916 -0.041036416
-0.022636691 0.009123991 -0.09596295 0.0092810495 -0.00523821 -0.07525039 -0.09492771 -0.039417956

_conv2_layer.0.bias f4 [30]
00000000: 3d62 0cbe 3c18 9dbd 67f0 94bd a4f4 1c3d
00000010: 5ee4 bbbd 8912 2dbf 0697 ad3e fd69 50bd
00000020: bdef e53d b3be eebd 1f87 dfbe c8be 71bf
00000030: cea7 ecbe 4372 b3bd 963d d2be 9676 9abe
00000040: 17ba cdbd 6dd2 e3be 974e e1bd 8c84 55bf
00000050: cd48 39bd c6a3 acbd 0220 01bf 657b ffbd
00000060: 1b8d eebc 745c c1bd cfc3 7cbd 5072 a7bd
00000070: 1edb adbe 317b 59be
-0.1370935 -0.07670638 -0.072724156 0.038319245 -0.09174417 -0.6760641 0.33904284 -0.05088233
0.11227367 -0.11657467 -0.43657777 -0.94431734 -0.46221775 -0.08762028 -0.4106261 -0.301686
-0.100452594 -0.4449648 -0.11001318 -0.83405375 -0.045235444 -0.08429675 -0.50439465 -0.124747075
-0.029120019 -0.09441462 -0.061710175 -0.081761 -0.33956236 -0.212384

_full_layer.1.weight f4 [60, 480]
00000000: b181 5a3c d372 463d 9983 763d cef7 eb3c
00000010: be81 3ebd daf5 e8bc 7e64 9b3c baa2 023d
00000020: 8e66 6ebd f386 573d 0480 6f3d d2c8 ef3b
00000030: f2f9 fc3b 314f 4dbd 6bfd cbbc b35d f2bc
00000040: b816 debb 7d4c b1bc b127 7cbd 0673 8fbd
00000050: fdb9 39bd 2ea0 05bc 8be3 e1bb 9dca 9cbc
00000060: 36aa ccbc 456c 9dbd 8b05 a5bd 55f5 33bd
00000070: b06a 56bd 7571 23bd 3764 9bbd 2ba9 64bd
00000080: d6df 0e3d 8377 40bc bc44 33bd ea30 b33d
00000090: cc25 fcbc c362 5abd 1ac8 963b 70bf 513d
000000a0: e18a 08bd b4a3 8aba 934a 96bb 381a 84bc
000000b0: 9f4d ac3c a2df 8ebd 4d66 0ebd 5446 04bd
000000c0: 7ba1 67bd e55c a2bd d2d6 16bc 240b cabc
000000d0: 9ac5 20bc 1790 cabc 1a25 acbd e875 afbc
000000e0: 243b 4bbd fc76 bd3c 4c5c c9bc 7bec dbbc
000000f0: 4467 32bd 3026 80bd c838 94bd 028e 58ba
00000100: c40f bdbc 8b1c 0dbd a6be 843c db9c c8bc
00000110: 06cf 4fbc 5ada 523c be42 fcbc 9193 a83c
00000120: d003 a5bb c2bf f03b 422c 9b3d f5fd b33b
00000130: d3e4 83bc 784d 44ba 8a21 33bd fb69 cdbc
00000140: c60f 483e d83d aa3e ca91 c6be 680d 12bf
00000150: 82e4 153f 6be8 313e 8a5d f2be ebe5 8ebe
00000160: a159 903d cd18 7b3d 4659 993e b65a 1bbe
00000170: 4ae6 e2be 8bbf 34be e386 c7be 8731 6b3e
00000180: 0cd4 13bf 14e0 2abe 8434 4d3d e28d 3c3f
00000190: 2142 93bd 2b40 1a3c 1445 273f 6744 93be
000001a0: 20dd 9fbe bb62 cbbe cc89 f83d 58fc 3dbf
000001b0: 494f 743d ccbc d7be 5e7c 8bbe 36a3 bd3d
000001c0: 2ce0 693d 3f39 febc baa3 c33d 0522 553d
000001d0: 4690 093d 0dad b2bc 145f 1e3d 1e5a a73c
000001e0: 5b2a 6b3d d4af d13d a9fd 923d e439 ba3d
000001f0: 759e bdbd 5a12 843d e277 133d e91b b23d
00000200: edd1 cf3d fa5e 1b3e b366 1cbe f51f 813c
00000210: 726f 2abf 194b ad3e 8f38 29bf b778 2ebe
00000220: e391 89bd 324e 2bbe d92a 68be e3de 6e3c
00000230: 7b6a dfbd b8a2 c6be f532 b5be fcc3 a83e
00000240: 3199 8b3d ffec a13d df1b 88bd 4346 af3d
00000250: a1aa 2d3d c736 b43d ace9 933d d80e 303d
00000260: 356f 9e3d 7434 c23d a222 323d eba9 5e3d
00000270: 533e 973d e9ca c13c a546 a53d 0bdd 9f3d
00000280: 8d24 08bd 1d0a 693c bd8b 2bbd bb06 083d
00000290: 31b7 c73d 65ac 8abc 51e0 8dbd 53fb ef3d
000002a0: f30b 49bc 7432 17bd 846b 053c e42b dc3d
000002b0: 4e45 b83b 1009 0f3e e65c 4b3d 6037 623e
000002c0: 50da 923d 5d30 4ebe 4238 3ebe 178e 81be
000002d0: 3b70 8b3d da77 a5be 511a e83d c478 e63d
000002e0: ef49 a53c ebee 213d 5c90 a4be 9339 b73d
000002f0: 7cd0 683e 9bb6 febd fb84 c2be 0680 3abe
00000300: 6507 a53d 1561 8abe 2a96 42be 67ac 083e
00000310: bfee e7be 9400 15bd 3315 093d 37ab 69bd
00000320: 1c73 c3be 4669 5abe 0f3d 17be 0ac6 2bbe
00000330: c862 553c e26b c23d 6a85 7cbd c2a9 8ebe
00000340: 3e9f ddbc 271a b6bc 4f73 e9bc bef2 73bd
00000350: 52c5 b9bb d5d6 2cbd 2f62 14bd bfeb 14bd
00000360: 135a 9cbd db5a 36bd 8959 e1bc ea91 abbc
00000370: db19 9e3b 0489 7ebc 7bcd 7fbd 8bb7 263b
00000380: b7b0 6dbd 6d7f bf3d 8548 13bd a94d 053e
00000390: 43a5 2ebe ebcf 0fbc 8321 b83e 8431 cdbd
000003a0: d780 9a3b 8bf5 24be 4c7a cfbe 7d87 35bf
000003b0: 272a d63d 661c a53e a423 48be dc79 fdbe
000003c0: 524e 743e a65b 1e3e 4633 80bf e38c 00bf
000003d0: f264 afbe aa3e e6bd 0e72 c73e 831b 953d
000003e0: d85c aebd ab81 66be fff8 6c3f 4929 d73e
000003f0: a343 eabe 44be 14bf bae4 d33e b3f3 95bc
0.013336585 0.04844935 0.060184095 0.028804686 -0.04651045 -0.028437544 0.018968817 0.03189347
-0.058203273 0.052618932 0.058471695 0.007317641 0.0077202255 -0.05012435 -0.024901113 -0.029585695
-0.0067776106 -0.021642918 -0.06156129 -0.07004361 -0.045343388 -0.008155866 -0.0068935803 -0.019139582
-0.024983507 -0.076866664 -0.08057698 -0.04393514 -0.05234784 -0.039903123 -0.07587474 -0.055825394
0.034881435 -0.011747244 -0.043766722 0.08749564 -0.030779742 -0.053316843 0.0046014907 0.05120796
-0.03333557 -0.0010577352 -0.0045865267 -0.016125783 0.021033106 -0.06976248 -0.03476553 -0.032293633
-0.056550484 -0.079278745 -0.009206491 -0.024663515 -0.009812737 -0.02472691 -0.08405514 -0.021418527
-0.049616948 0.023128025 -0.024580143 -0.026846161 -0.043555513 -0.06257284 -0.07237393 -0.0008260907
-0.023078807 -0.03445105 0.01620419 -0.024488857 -0.012683636 0.012869442 -0.030793544 0.020578178
-0.005035855 0.007347078 0.07576801 0.0054929205 -0.016100323 -0.00074883504 -0.043733157 -0.02507495
0.19537267 0.33250308 -0.38783103 -0.57051706 0.585518 0.17373817 -0.4733699 -0.27909788
0.07048345 0.06130295 0.29950923 -0.15171322 -0.44316322 -0.17651193 -0.38970098 0.22968112
-0.5774543 -0.16687042 0.05009891 0.73653996 -0.071903475 0.009414713 0.6533978 -0.28763124
-0.31223392 -0.39723763 0.12135658 -0.7421317 0.059645925 -0.42136228 -0.27243322 0.09259646
0.057098553 -0.031033156 0.09552713 0.052034397 0.033584855 -0.021811033 0.038664892 0.020428713
0.05741344 0.10238615 0.07177288 0.09093073 -0.09258739 0.06448813 0.036003 0.0869673
0.10147462 0.1517295 -0.15273552 0.015762309 -0.665763 0.33846357 -0.66101927 -0.17038237
-0.06717279 -0.16729048 -0.22672595 0.0145795075 -0.109089814 -0.3879602 -0.3539044 0.32962024
0.06816328 0.079065315 -0.06645941 0.08558323 0.042399053 0.087995104 0.07222304 0.042982906
0.07736055 0.09482661 0.04349006 0.054361265 0.07384934 0.023656325 0.08070115 0.078058325
-0.033237983 0.014223603 -0.04188131 0.033209544 0.09751738 -0.016927907 -0.069275506 0.11717858
-0.012270915 -0.03691335 0.0081433095 0.10750559 0.005623496 0.13968301 0.04964914 0.22091436
0.07170546 -0.20135637 -0.18576148 -0.25303718 0.06808516 -0.32318002 0.113331445 0.11253503
0.020176856 0.03953449 -0.32141387 0.08946528 0.2273578 -0.12437173 -0.3799208 -0.182129
0.08058051 -0.27027193 -0.19002596 0.13347016 -0.45299336 -0.036377504 0.033467483 -0.05704805
-0.3817376 -0.21329221 -0.14769386 -0.16774765 0.01302404 0.09493233 -0.06165067 -0.2786389
-0.027053472 -0.022229267 -0.028497366 -0.05955767 -0.0056692744 -0.042197067 -0.036226448 -0.036357637
-0.07634368 -0.04452024 -0.027508514 -0.0209436 0.0048248596 -0.015535597 -0.06245182 0.002543899
-0.058029857 0.093504764 -0.035957832 0.13017906 -0.1705523 -0.008777599 0.35963067 -0.1001921
0.004715066 -0.16109292 -0.40522993 -0.70909864 0.10457259 0.3224823 -0.19544846 -0.49507034
0.23858002 0.15464649 -1.0015647 -0.50214976 -0.34256703 -0.11242421 0.38954204 0.07280638
-0.08513802 -0.22510402 0.9256744 0.42023686 -0.45754728 -0.5810282 0.41385442 -0.018304681

_full_layer.1.bias f4 [60]
00000000: b1d8 4cbd f2b5 97bd 9076 0a3f ade2 a83c
00000010: 347e 9cbb 4df6 503e 5440 78be d4ed 8ebe
00000020: 6595 f3be ccb0 9e3d c8e5 07bf e34e a6bd
00000030: f20b d9bd c355 a13d f96a a1bd 7fd5 3b3e
00000040: a680 8ebd 9151 77be 6fe0 a2be 4a91 afbd
00000050: 0cf5 a43e c819 373e 2217 d5bd 8e29 c5bd
00000060: 848b 0ebe ef5a bbbe b0bc 5fbe 991f ecbd
00000070: 0fdb b5bd cdda 383e 63fc 96bd df49 07be
00000080: db7a 3ebe 1230 eebe 0650 6fbd 81db 92bd
00000090: 70c0 0bbd 728f 96be d9e3 6ebd 6580 d0bd
000000a0: a544 21be 8fe7 6ebe 8efc 1a3e 0d03 bdbe
000000b0: f991 e8be 9b33 9cbd feb7 c5bd 745b 04be
000000c0: fe8b 61be 32be f6bd 997e e4bc 619d ecbe
000000d0: 1bc8 8b3e 8f04 a9bd 6592 53be d80b d9bc
000000e0: a2ba 32be c6f1 d13c c055 63be ebec 3dbe
-0.05001134 -0.0740775 0.5408716 0.0206159 -0.004775787 0.20406456 -0.24243289 -0.27915823
-0.47574916 0.07748565 -0.53084993 -0.08120515 -0.105979815 0.07877686 -0.078817315 0.18343161
-0.069581315 -0.24152209 -0.31811854 -0.085726336 0.32218206 0.17880929 -0.10404803 -0.096270666
-0.13920408 -0.36592814 -0.21849322 -0.11529464 -0.08879673 0.18052216 -0.07372358 -0.13211773
-0.18601553 -0.4652105 -0.058425926 -0.07170773 -0.03411907 -0.29406315 -0.05832276 -0.10180739
-0.15748842 -0.2333052 0.15135404 -0.3691639 -0.45423868 -0.076270305 -0.09654234 -0.12925512
-0.22026059 -0.120479956 -0.027892398 -0.4621382 0.27301106 -0.082528226 -0.20661314 -0.026494905
-0.17454007 0.025627982 -0.2220068 -0.18547408

_full_layer.3.weight f4 [10, 60]
00000000: 60b3 943d 5092 ac3e fa73 97be ae56 19bb
00000010: e88b 163d 7e02 4bbe 3787 a2be 56ed 633e
00000020: 9c9f 6e3d 7d65 91be 40c3 f23d b193 bb3c
00000030: 7384 c0be 9acf 9dbe a315 5ebd 4102 563e
00000040: 866b 023d 74a2 39be cf60 09be 9cc8 2abd
00000050: b669 62be 386b 953d 36f7 e3bc ebfb 5fbd
00000060: 3d16 8a3e ce86 4dbe 06e8 b23c 59e9 a83e
00000070: ed6f 2a3d 1746 acbd 9544 6bbd 055b 8cbd
00000080: fd8c a5be c4a6 743d 1a73 1cbe b89d bbbc
00000090: 042b 99bd 4f20 cd3c 50f8 c23c 6031 92be
000000a0: 4d7e bdbd 5af3 17be 74e9 8a3e 0bca b13d
000000b0: e04c 983e 29ad ee3d 95e9 9bbe b293 c93d
000000c0: 7d33 29be 6b0d 35be b8d7 64bd 72b8 17bf
000000d0: 99e1 a4be b4e9 bf3a 6026 56bb 4400 16be
000000e0: feca f9bd d8d0 953c 8171 27be 8205 c5bd
000000f0: d3e5 dcbe eab7 a83d 27b0 d1bd 4d43 493e
00000100: 0117 2b3e ba50 3d3e 5ce8 9cbc a404 6dbe
00000110: f16a 08be bb5a 9e3e eb7f 503d 552b e8bd
00000120: dda2 cabe e9f2 73be 5052 60be 52cd 13be
00000130: 21d4 efba 03ca f2be bcb2 15be cae5 95bd
00000140: 0ad9 303e 9870 a13e 1c18 d5bc c21b 5dbe
00000150: dfd2 ccbe 09e2 f1bd 702b 90be e758 ddbe
00000160: da2e 3bbe 1597 713e 0baa f7bd a40f 4b3d
00000170: 9fbf 29be 6244 0bbf ed46 3a3e 3642 7b3b
00000180: ecef 133d 98d9 4ebe 475c 35bc 7375 d93e
00000190: e517 0ebd 713b 13bd 932b 98be 9b03 3bbe
000001a0: 70be b7be ea1f 263d 6474 20be df71 7fbd
000001b0: 44d1 bfbe 0012 d4bd 54de 00be be17 243e
000001c0: 7d86 f93d 68c4 16bd a6ed 1d3e 2bfc d5bc
000001d0: 6244 103c d197 dc3d 9ac0 a3bd 3551 c7bd
000001e0: c874 82be 1c17 01be 3bcc 083e 9a3d 9cbe
000001f0: ecc6 77bd afb6 273b b0f3 f7bd 0449 9cbd
00000200: 5f3b 7d3e 9b11 c73d 6177 b13d c0a5 ca3c
00000210: c7be 1cbe e109 87bd f2c6 0abd 259c 8d3e
00000220: e22c 703d ee47 74bd 2392 ab3e 331c cbbc
00000230: 3dd0 e2bd ac29 ecbd 0f09 3bbe 4bfa 923e
00000240: 3f7b 8bbe 7eae 74bd 384b dd3c c153 223c
00000250: c0fa 40bd 9fee 99bd 9fdb b7bc 125f a4bd
00000260: 83a1 f3bd c21b a23e cec0 61bd 4d56 0abe
00000270: f301 533c 08da a5bc 1f6d 26bc b7b5 283b
00000280: da44 943b ec51 5d3e 5997 79be 7c47 e5bd
00000290: c401 5bbe 48af a43d e408 bebd f685 6fbd
000002a0: ca0e bcbc 9625 c8bd 43c4 00be 4781 333c
000002b0: ae4d 0a3e a4d1 253d dc5e 853e 7101 8fbd
000002c0: 93a0 3b3d f9f9 8abe 62e9 bcbe 856c 2cbe
000002d0: 5d31 2a3e 28c5 f5bd 62bf ad3d 05c9 01be
000002e0: 1b84 37be 0b03 b0be 4593 b73e 47fa 413e
000002f0: de7a 3abd 6e8a 72be 3be8 333e e4a6 103c
00000300: 600f f93d f5aa acbd 09ad acbe 91dc 00bc
00000310: 965c 8abd 9c3b 9cbe 137d 863c c0a2 3abe
00000320: 41a8 5c3e 2668 42be 4bbe d0bd 480c 50be
00000330: 0fe7 40be 9e28 8e3d 2c11 3abd e97f 3bbe
00000340: cd40 153d 7126 efbd 514d adbc ca11 0f3d
00000350: 2dea 553d 2667 ac3e 979c eebc 31c5 583d
00000360: 63a6 0bbd 4c54 b33e 759a 18bd 4b7a 09be
00000370: bef6 593e 7f91 f83b f3d0 88bd dcce 7b3d
00000380: b4d5 583d d6aa 2e3e 52a2 4dbe 23af f83d
00000390: 279e 96be 9d5e 9f3d 02de d0bd 4f4c 1ebc
000003a0: 2527 a7bd e998 f3bb 9a2e 683e cf4a 15bd
000003b0: 2fc7 943e 2f52 95be e114 10be e899 153e
000003c0: b12d 333b 9a09 26be 0a34 11be e06d 52be
000003d0: 69af 1d3e 93f4 7b3e c83e adbe cdbc 30be
000003e0: c799 26be 4aa6 723d 4891 db3d 8d11 c23a
000003f0: a1c9 6a3d de7c 73bd 7a3c 2c3e 4d7b 42be
0.072607756 0.33705378 -0.2958067 -0.0023397612 0.03675452 -0.1982517 -0.31743786 0.22258505
0.058257684 -0.28397742 0.11853647 0.022897573 -0.3760105 -0.3082245 -0.054219853 0.20899297
0.031840824 -0.18128377 -0.13415836 -0.041695222 -0.22110638 0.07295841 -0.02782784 -0.054683607
0.2697009 -0.20070955 0.021839153 0.3299053 0.041610647 -0.08411806 -0.05743845 -0.06853298
-0.32334128 0.059729353 -0.15278283 -0.022902355 -0.07478908 0.02503982 0.023800045 -0.28553295
-0.092526056 -0.14838925 0.27131236 0.08681115 0.2974615 0.116541214 -0.30451646 0.09842624
-0.16523547 -0.176809 -0.055869788 -0.59265816 -0.32203367 0.0014641793 -0.0032676682 -0.14648539
-0.12196921 0.018288061 -0.16351892 -0.09620191 -0.43144092 0.08238204 -0.102386765 0.1965458
0.16707994 0.18487826 -0.019153766 -0.23146302 -0.13322045 0.30928597 0.050903242 -0.1133639
-0.3957738 -0.23823132 -0.219064 -0.14433792 -0.0018297472 -0.47419748 -0.14618963 -0.073192194
0.17270294 0.31531215 -0.026012473 -0.2159262 -0.40004632 -0.11810691 -0.2815814 -0.4323189
-0.18279591 0.2359279 -0.1209298 0.049575463 -0.16577004 -0.5440122 0.18191119 0.0038339025
0.03611748 -0.20200193 -0.011069364 0.4247242 -0.034690756 -0.03594536 -0.29720744 -0.18263094
-0.3588748 0.04055778 -0.156694 -0.062364455 -0.37464345 -0.10354996 -0.12584811 0.16024682
0.12183855 -0.0368084 0.15422687 -0.02612122 0.008805366 0.10771144 -0.0799572 -0.09732286
-0.25479722 -0.12606472 0.13359158 -0.30515748 -0.06049244 0.0025591066 -0.121070266 -0.07631114
0.2472968 0.09720155 0.08665348 0.024737239 -0.15307151 -0.06593681 -0.033881135 0.2765819
0.058636554 -0.05963891 0.3350993 -0.02479372 -0.110748746 -0.11531386 -0.18265174 0.28706583
-0.27242467 -0.05973672 0.027013406 0.009907664 -0.047114134 -0.075162165 -0.02244359 -0.08025946
-0.1189604 0.31661803 -0.055115514 -0.13509484 0.012878883 -0.020245567 -0.010157852 0.0025743076
0.0045248093 0.21613282 -0.24374141 -0.11195275 -0.21387392 0.08041245 -0.092790395 -0.058477364
-0.02295627 -0.09772794 -0.12574868 0.010956115 0.13506195 0.040483132 0.26048934 -0.06982697
0.045807432 -0.2714384 -0.36896807 -0.16838272 0.16620393 -0.12000495 0.08483769 -0.12674339
-0.17921488 -0.34377322 0.35854545 0.1894313 -0.04552733 -0.23685619 0.17569058 0.008828852
0.12161136 -0.08431045 -0.33725765 -0.007865087 -0.067559406 -0.30514228 0.016417062 -0.18226147
0.21548559 -0.18985042 -0.101925455 -0.20317185 -0.18838142 0.06941341 -0.045426533 -0.18310513
0.036438752 -0.11677254 -0.021155031 0.034929074 0.05222528 0.33672446 -0.029127402 0.05292243
-0.034094226 0.3502525 -0.037256677 -0.13425557 0.21285531 0.007585704 -0.06680479 0.061476573
0.05293818 0.17057356 -0.20081452 0.1214278 -0.29417536 0.07781718 -0.10198595 -0.009661748
-0.08161763 -0.007434 0.22674027 -0.036448296 0.29058215 -0.29164264 -0.14070465 0.14609492
0.0027340467 -0.162146 -0.14180008 -0.20549726 0.15398945 0.24605016 -0.3383696 -0.17259522
-0.16269599 0.059240617 0.107210696 0.0014806256 0.057321195 -0.059445255 0.16819945 -0.18992348

_full_layer.3.bias f4 [10]
00000000: 8dce 953e fab8 943e 2aaf 05be 2b2f f8bd
00000010: e431 c43d e6c0 efbd 1b48 0fbf 7af8 0d3e
00000020: 2a28 8c3e 1f41 0ebe
0.29259148 0.29047376 -0.13055101 -0.121183716 0.095798284 -0.11706714 -0.559694 0.13864318
0.27374393 -0.13892029
